tf.__version__ is 2.2.0-rc0
tf.keras.__version__ is: 2.2.4-tf
loading model from file: models/Breakout__90.0max_34.0avg_18.0min__1586815605.model
weights restored successfully..
Model: "sequential"
_________________________________________________________________
Layer (type)                 Output Shape              Param #   
=================================================================
conv2d (Conv2D)              (None, 32, 20, 20)        8224      
_________________________________________________________________
conv2d_1 (Conv2D)            (None, 64, 9, 9)          32832     
_________________________________________________________________
conv2d_2 (Conv2D)            (None, 64, 7, 7)          36928     
_________________________________________________________________
flatten (Flatten)            (None, 3136)              0         
_________________________________________________________________
dense (Dense)                (None, 512)               1606144   
_________________________________________________________________
dense_1 (Dense)              (None, 4)                 2052      
=================================================================
Total params: 1,686,180
Trainable params: 1,686,180
Non-trainable params: 0
_________________________________________________________________
None
reward_avg=21.5, reward_min=0, reward_max=43.0, epsilon=0.19
reward_avg=28.38, reward_min=6.0, reward_max=47.0, epsilon=0.18860851560596248
min_reward>old_min_reward saving model...
…
